submission/models/model_lf.pt (torch_old, 860733 bytes, 46 tensors)

feature_extractor.0.weight f4 [32, 3, 5, 5]
00000000: 6866 c0bf 437b d7be 0162 203e 8c6d ec3d
00000010: 5a30 283f 581c a3bf f4b9 9c3e e79c b83e
00000020: ca2a 623f 1cd3 7e3f f35a 9bbf ac27 a6bf
00000030: b672 3bbf b2a4 0e3f a446 d13e a76d 55be
00000040: b5be bebe 5072 e9be 5c2e 0e3f 7b61 c73f
00000050: ef34 f2be 22ec b4bd 7477 0fbe 96fa 4f3f
00000060: 94e4 743f 2fb0 ddbf 712d 94bf 6370 33bf
00000070: 282c 29bf adf5 e8bd 885e 34bf 1e3d 403e
00000080: 2592 873e 11dd c43e 604e 8c3f 47e6 86bf
00000090: bad1 78bf d5e7 edbe 60c4 ba3e 0f66 d03e
000000a0: dae7 36bd 7813 debe ed3c e4bc 9935 373f
000000b0: af6a ae3f 37c8 9bbe 2816 913d 53ba 123e
000000c0: c9be 373f b036 633f f1c2 85bf 5bf4 2cbf
000000d0: af55 2cbf a582 56bf 146d 17bf ff16 c6be
000000e0: 5865 d9bd d6bd 9cbe 5cf2 5ebe edfc 393d
000000f0: 623f 58bf 3de8 53bf 1e40 18bf 9cda d43e
00000100: 73db f13d 57f8 1b3c 5942 7cbe 2d90 58be
00000110: aa4e 37bd 97ab 8c3e f7a9 f6be 650c f5be
00000120: fe98 43bf 8787 02be 4aa8 f3bd 175c 88be
00000130: 0c32 b9be 523c 0e3e ee9c d93e d21a 563e
00000140: 546f 70bf 4a0b 03bf 39c3 95bf 2b5f 6fbf
00000150: fe9e 5f3f 11f1 fb3f ac5d 1f3f 50f5 393f
00000160: de65 553d c09e 0b3e 319c c1bf 1da4 07bf
00000170: ca72 78bf 4888 57bf b1d2 a9be bff5 d5be
00000180: 9aa0 b93e 3d78 22be 318c 1dbf f4ab f7be
00000190: 0317 bdbd 4a3e 7dbd bd12 cb3e d809 fa3d
000001a0: 89c8 6f3e 218b 0ebf 9414 5dbe 18e1 3dbf
000001b0: 3805 dbbe fcb7 ac3f 264d e03f b665 1f3f
000001c0: a886 803f 5286 063f 3a0d 503f c3db 4bbf
000001d0: 98bd 22be 7de8 25bf aa3e f8be 0767 6d3e
000001e0: c182 b53e 8950 3e3f c322 123f 766d b43b
000001f0: 7570 3a3e 1c78 023e 583f 7ebe b590 a1be
00000200: 969c c2be 56b9 d2be e9b9 c0be c7dd a83d
00000210: a721 17bf c33a eebe 8345 3b3f 6d85 7b3f
00000220: d1f0 bdbd e06d 9a3e 63ad 31be c4e3 9c3e
00000230: a7f2 e9be 73ee bcbe 7ecf 57bf 33bf 0fbf
00000240: d5f8 25be f1ac f43e 5bab cf3e c459 143d
00000250: 4013 ddbe fc2a 20be 3d1b 223f 87b7 653f
00000260: d9ec 1c3f 562b 073e 75f1 40bd f9f2 19bf
00000270: f9d4 b1be 0174 fdbe aeaf de3e 0497 9b3e
00000280: 7ee7 8cbf 6af4 1dbf 8029 0bbf 6bf3 92be
00000290: 9b88 de3e 5846 803f 65ba 713f f2f5 1b3f
000002a0: d57c 9a3e c670 28be c9cd c13f fc94 ea3e
000002b0: 683d 25bf 8936 bdbe 1ccf 17bf 79b9 923d
000002c0: 344a 023f 180b 683e 90a1 9a3e 685e 963e
000002d0: e91c f4be 77ca b2be 080c f1be bf3f 093f
000002e0: 22c8 083f 547b 16bf 08ed b7be edfa a4be
000002f0: 9200 0abf ebde 5c3e fac1 b43f 2bbe bd3f
00000300: 7860 a83f a12e 283f 2fd6 c53d 9fa2 453f
00000310: 606b c0bd 7983 7dbf 060e 61bf 1e14 a3be
00000320: 25b7 68be 9c58 513e 6c12 763e 4066 973d
00000330: c867 b63e de65 88bf ae51 4bbf cd28 8bbf
00000340: e896 643d 76d3 c03c 6e84 9ebe c6c7 e8bd
00000350: ad1c ddbe 1bf8 11bf 40c7 9d3e 7ae6 873d
00000360: 7359 0e3f 5f06 1b3f d333 f63e 5d41 e63d
00000370: 8a6c 093e b964 fcbe afd0 a4bf ac2d a2bf
00000380: f220 98bf e511 7b3f bf6a 2e3f 3ffa 843e
00000390: d566 edbc b0e5 02be ba36 b0be 2a34 21bf
000003a0: 7f3e 43be a0c5 00bf 6113 6bbf 68d3 d73e
000003b0: 9f1b a43e 81fa 643f 36c0 f93e 278a 043d
000003c0: 9a52 3a3d ed32 1e3f c063 8d3f 2962 493f
000003d0: d10c 30bf 041d f4bf 511f a2bf f7cf f4be
000003e0: c04c e7be a85f b83e ebe6 363f e277 5cbc
000003f0: bf6c f4be e903 31bf ed03 b6be 52bc fabe
-1.5031252 -0.4208623 0.15662386 0.11544332 0.6569878 -1.2743025 0.3061062 0.36057207
0.8834654 0.9954088 -1.213713 -1.2980857 -0.7322191 0.55720055 0.40874207 -0.2084261
-0.37254873 -0.45595026 0.5553949 1.5576624 -0.4730601 -0.08834101 -0.14010412 0.8124174
0.9566128 -1.7319392 -1.1576368 -0.70093364 -0.66083 -0.11374984 -0.70456743 0.18773314
0.26478687 0.3844991 1.0961418 -1.0539025 -0.9719502 -0.46465936 0.36477947 0.40702865
-0.044654705 -0.43374228 -0.027861083 0.7156616 1.3626307 -0.3042619 0.07084304 0.1432889
0.7177549 0.8875532 -1.0450116 -0.67560357 -0.6731824 -0.837931 -0.59150815 -0.3868942
-0.10615033 -0.30613583 -0.2177214 0.045407224 -0.84471714 -0.8277624 -0.59472835 0.41573036
0.11809435 0.009519658 -0.24634685 -0.21148749 -0.044752754 0.27474663 -0.48176548 -0.4786102
-0.7640532 -0.12747012 -0.11897333 -0.2663276 -0.36170995 0.13890198 0.4250254 0.20908669
-0.93919873 -0.511891 -1.1700202 -0.9350459 0.8735198 1.9682943 0.62252307 0.7263994
0.0520991 0.13634777 -1.5125791 -0.5298479 -0.97050154 -0.84192324 -0.33168557 -0.41789052
0.36255342 -0.1586618 -0.6154204 -0.48373377 -0.09232905 -0.06182698 0.39662734 0.12208909
0.23416342 -0.55681044 -0.21589881 -0.7417159 -0.4277742 1.3493648 1.7523544 0.62264574
1.0041094 0.52548707 0.8127018 -0.79632205 -0.15892637 -0.64807874 -0.4848531 0.23183833
0.3545132 0.74341637 0.5708429 0.005506213 0.18206961 0.1274113 -0.24828851 -0.31555715
-0.3801009 -0.41157025 -0.37641838 0.08245426 -0.59035724 -0.46529207 0.7315294 0.98250467
-0.09274448 0.30161953 -0.17351298 0.3064252 -0.45692942 -0.36900672 -0.8430098 -0.5615112
-0.16208203 0.47788194 0.4056042 0.03621842 -0.4317875 -0.15641397 0.6332281 0.89733166
0.612989 0.13200125 -0.04710527 -0.6013637 -0.34732798 -0.49502566 0.43493408 0.30388653
-1.1008146 -0.6170107 -0.543602 -0.28701338 0.43463597 1.0021467 0.9442504 0.6092216
0.30173364 -0.1644927 1.5140926 0.4581679 -0.64546824 -0.3695567 -0.593004 0.07164282
0.50894475 0.22660482 0.30201387 0.293689 -0.47678307 -0.34920093 -0.47079492 0.53612894
0.5343038 -0.58781934 -0.35923028 -0.3222269 -0.5390712 0.21569411 1.4121697 1.482366
1.315444 0.6569615 0.09659993 0.77201265 -0.0939548 -0.99028736 -0.87912023 -0.31851286
-0.22726114 0.20443958 0.24030465 0.073925495 0.35626054 -1.0656087 -0.7942151 -1.0871826
0.055807978 0.023538332 -0.3096041 -0.11366229 -0.4318594 -0.57019204 0.30816078 0.06635757
0.5560524 0.60556597 0.48086414 0.11242936 0.1342031 -0.49295595 -1.2876185 -1.2670188
-1.1885054 0.9807418 0.6813163 0.25972173 -0.028979698 -0.12782931 -0.34416753 -0.6297022
-0.19066809 -0.5030155 -0.91826445 0.42153478 0.32052323 0.8944474 0.48779458 0.032358315
0.04548893 0.61796457 1.1046066 0.78665406 -0.68769556 -1.9071355 -1.2665807 -0.47814915
-0.45175743 0.3601048 0.714461 -0.013456317 -0.47739217 -0.6914659 -0.3554987 -0.48971802

feature_extractor.0.bias f4 [32]
00000000: a39a cfbd 7c84 67bc 2b54 d2bd a305 a9bd
00000010: fcc6 953c 1238 d3bd fd93 b33d e9d4 bf3b
00000020: 0d08 c1bd 852a 34bc f397 91bd 6001 1dbb
00000030: fc6c 953d 7835 963d b7f7 893d a394 babd
00000040: 70af f9bd bf65 c83d 33cf 1dbe 9258 cebd
00000050: 7bca d33d 2778 493d facf fbbc 06d7 70bd
00000060: e304 a4bc f5f0 ea3c 1443 9fbd 12a3 9c3d
00000070: eb1d 2c3d f80d 823d b14c 0ebd 7795 943d
-0.101369165 -0.014130708 -0.1026996 -0.08253028 0.01828336 -0.10313429 0.08768461 0.0058542383
-0.09425364 -0.010996466 -0.0710906 -0.0023957118 0.07296178 0.07334417 0.06736701 -0.091103815
-0.12191665 0.097850315 -0.15411071 -0.10075487 0.103413545 0.04918685 -0.03073882 -0.058798812
-0.020021861 0.02867935 -0.07776466 0.07648291 0.04202072 0.063503206 -0.034741107 0.07255071

feature_extractor.2.weight f4 [32]
00000000: d372 ec3f 3225 b83f be28 953f b171 7d3f
00000010: c617 2a3f 7226 0540 7f6e 203f 72c9 1040
00000020: 1d08 903f 1ccd ed3f ad64 8c3f cc33 af3f
00000030: dd8d e13f 8471 d83f 0133 863f 9032 b73f
00000040: 912e 0940 dc28 2340 8181 0e40 921c ac3f
00000050: 848f da3e 0250 2f40 37bc 573f e82a 9d3f
00000060: 3a99 443f 367e b13f 9de2 9f3f b95a a03f
00000070: 6cf5 993f 0af6 af3f 546f 5d3f 43b1 843f
1.8472542 1.4386351 1.1653059 0.99001604 0.66442525 2.0804715 0.62668604 2.2622952
1.1252476 1.857822 1.0968224 1.3687682 1.7621418 1.6909642 1.0484315 1.4312305
2.1434672 2.5493689 2.2266543 1.3446219 0.4268762 2.7392583 0.8427157 1.2278719
0.76796305 1.3866642 1.2491032 1.2527686 1.2028022 1.374696 0.86498 1.0366596

feature_extractor.2.bias f4 [32]
00000000: 9bd6 79be 5493 d9be 0270 e5be ba28 9fbf
00000010: 9bd3 08bf a931 05bf 3d60 2a3e 507e 14be
00000020: 1d86 94bf f825 04bf c1b3 c4bc b85f 05bf
00000030: ed16 4d3d 20a5 a0be 6c85 e8be 73ce d7be
00000040: b3b5 a9be 3ca0 683e cf5e 27be 69ad acbe
00000050: ee52 b1be 1acf ff3c 74b4 11bf 316a 3c3e
00000060: 9372 bfbe 3268 70be 7d73 e3be 2b0d 88bf
00000070: f8ca ad3d 21c0 c6be 13ce aabf 7f24 9ebe
-0.24398272 -0.42495215 -0.44812018 -1.2434304 -0.53447884 -0.520289 0.16638274 -0.1450131
-1.1603428 -0.51620436 -0.024011495 -0.5209918 0.05007069 -0.3137598 -0.45414293 -0.42149696
-0.33146438 0.22717375 -0.1634476 -0.3372605 -0.34633583 0.031226683 -0.56915975 0.18399884
-0.373921 -0.23477247 -0.44424048 -1.0629019 0.08485979 -0.38818458 -1.3344139 -0.3088722

feature_extractor.2.running_mean f4 [32]
00000000: 6e36 9c40 109f 5040 94a1 9c3f 1a71 b43f
00000010: f5b5 5240 c941 b040 4410 5d3f 62d0 5041
00000020: 5c78 5bbf 5ccb 8d40 a0cd 8240 285d 8b40
00000030: bd8c 0c41 ba4f b540 5325 be40 ce68 e93e
00000040: c9ac 9441 0e39 bb41 74c9 a040 bcc5 f640
00000050: e5e8 173c d853 7440 ba7c 8a40 51c9 9fc0
00000060: b77c fc3f 4783 bd40 4bfd 1f40 456a 6040
00000070: 85b7 b7c0 1eb0 41c0 1573 4abf e7c6 e8c0
4.8816442 3.2597084 1.223681 1.4097016 3.2923558 5.5080304 0.86352944 13.050875
-0.8573053 4.431074 4.0876007 4.3551216 8.78436 5.6659822 5.942056 0.45587772
18.584368 23.402859 5.0245914 7.7116375 0.009271835 3.8176174 4.3277254 -4.9933248
1.972556 5.922275 2.4998348 3.5064862 -5.7411523 -3.0263743 -0.7908185 -7.27428

feature_extractor.2.running_var f4 [32]
00000000: 8c53 6743 b60f d641 2f52 1d42 63fc b941
00000010: 07be 8c41 5bcb 6242 6a9f 0a44 1e63 8543
00000020: 9907 8142 ea73 2143 3bfb cd41 8c5b a241
00000030: 8a1b c442 7446 4c42 37f5 0542 1304 a042
00000040: 76d5 0044 dd43 c244 2ebc 4d43 3206 c342
00000050: 77e9 7143 ef0d 1c43 0f9e 6141 18bb 2644
00000060: 20de ad41 9848 3b43 9be8 4642 8ee5 a741
00000070: f287 8743 2be9 d043 2770 3742 3b07 0244
231.32635 26.757671 39.330257 23.248236 17.592787 56.69859 554.49084 266.77435
64.51484 161.45279 25.747671 20.2947 98.05379 51.0688 33.489468 80.00796
515.3353 1554.1207 205.73508 97.5121 241.91197 156.05443 14.101089 666.92334
21.73346 187.28357 49.727154 20.987087 271.06207 417.82162 45.859524 520.113

feature_extractor.4.conv1.weight f4 [32, 32, 3, 3]
00000000: 95c3 673e 1ba5 123c 2d17 2a3f 81b1 593e
00000010: 31bd 2abd bb51 b73f 8373 ad3e 134a 6e3e
00000020: 7a62 033f b7a8 dfbe 6e35 4d3f 3bc7 ec3e
00000030: 08e3 e1be ba2d 8b3e f213 753f 72cd 983e
00000040: 80e1 5e3e aa87 343f dd81 423e a380 37bf
00000050: e722 f6be 8eeb a5bf 2e4f 0ebf b73e e93e
00000060: 3c56 1fbf f5d6 8ebe ba49 88bf de22 50be
00000070: 3754 a3bf 4130 ccbe 0c23 563e b10d efbe
00000080: 144f 43bf b44f ac3d aff9 a3bf a9e1 3ebf
00000090: c77a 0b3f 0e83 cfbe f112 e53e d09a d9bd
000000a0: 2a71 8e3e ffe2 953e b7ac 923e 3794 2b3e
000000b0: b31b 2abf 0171 a03d 2381 0f3e 2ad0 bc3e
000000c0: 3d33 743d 7783 853e 20c6 2ebf 8933 d73e
000000d0: e06b d1bd 96c5 b0be 4c03 bcbe 9789 bfbe
000000e0: 7e54 3fbe 31a4 1ebe bdf6 37be 0a3e fe3d
000000f0: d7c0 16be 41d4 2a3e 3a4b 173e 3218 3bbf
00000100: 89e8 6fbf 5f58 83bf c945 7e3e bb93 873e
00000110: fbaf 85bf 6fea 173f aa4f 2c3f ee5a c13e
00000120: 54d4 a7be f4c1 963c 4e01 383f f340 fdbe
00000130: b9c6 4c3f 0664 ef3e ffaa 2cbf e4df 82be
00000140: 47bf b43e 7d10 4fbf 430d 6cbd 5bc2 adbe
00000150: dad9 923f 331a 8e3f 7307 3a3f e637 aebd
00000160: ce19 363e b410 a0bc 4076 86bf 250b 7ebf
00000170: ecc5 203f 7675 253f d263 62bd 8407 f43d
00000180: bddd 0cbf 3b61 8f3e 0bac 12be 9e59 a2bd
00000190: 377e 2a3f 7918 13bf bb9f 5b3f 7e60 9bbe
000001a0: aa90 2b3f 3f58 7e3e 7c98 4f3f 02f9 f83e
000001b0: 3844 8cbf edc6 88bf 7af6 bfbf cf1a 7fbd
000001c0: 3762 2fbf 0efb 2f3e 2a3f 57be f1aa 91be
000001d0: 6bd6 53be 1fb0 653f 6e8f f63d cecb a73e
000001e0: de22 bb3d 0bb2 4dbf 5dac 4fbf d329 b73e
000001f0: 4938 d3bd ee7d 88bf bd5d 463e f2c7 76bf
00000200: 7ce6 d23c b765 203d a909 13bd 23db 843e
00000210: 2862 5d3d 7dfb 0c3e 71d5 043f 97b4 3abe
00000220: 7b6d 38bf 41ea c2be 436e 85bf 78de 5abf
00000230: 12b6 473d 162a 443f 301f 9c3e b164 4ebf
00000240: 4296 b13d b3c4 89be 830f 253f c877 3b3f
00000250: 99e6 633f 0a5f 143f 408e d33f b0a0 fb3f
00000260: 9aea 0040 44d3 01bf 59a0 33bf c547 e4be
00000270: 8458 643f 98f5 433f ab6e 2bbf a522 913f
00000280: e4d6 5a3f 6283 f23e e417 b8bc 97a9 acbf
00000290: 63fa 3bbf 62ca 53bf fd09 04c0 e06f 07c0
000002a0: b69a 883e 3158 d7be 6771 a9bf a92e ba3e
000002b0: c968 a0bf 6f32 e03d c464 fcbe a161 68bf
000002c0: 97d4 0dbf 59e8 93bd 40fc 3bbf 130d abbf
000002d0: 8208 9c3e 648f a1bf a722 233e 9753 ccbe
000002e0: a8a5 54bf 0b8d 48bf f2fa 363f d90d d73e
000002f0: d488 e73e 42fc b93d aa29 debe 4c48 45bf
00000300: 058c 33bf 2959 6fbd a088 edbe c354 b03c
00000310: e167 e7be 682f 33be eb56 1b3f 7ee3 b7bf
00000320: 57ff 47bf 516c 75bf 6c11 5ebe 3887 e4be
00000330: 1172 fdbe 57a2 3ebe 07c0 353e 2384 41bf
00000340: 0481 a5be cc9f bc3e 754a 53bf e53e 28bf
00000350: e698 dbbe cf9e b8bf 5a06 1ebf 07c5 613d
00000360: f5f1 6cbe 8f2c 963e 4dd6 203e 4013 4abf
00000370: 12e0 d83c 5ab3 a53e 7bb9 533f e7e4 aabf
00000380: 33b0 74bf d67c 643e 38a0 183f ea16 943e
00000390: 8c0a 483f 14be 76be da50 bebe c4e5 0b3f
000003a0: 612f d8bc 2568 94bf 68c4 4b3f 9ed1 0e3d
000003b0: ca2d 783f 5061 c9be d1d4 debd e42d 523f
000003c0: dd64 fe3e 4c8d cdbf 993a 83bf 4143 21bf
000003d0: 36ac 6dbe 48ef 743d 6df9 323e 58a9 3bbf
000003e0: 5abf a03c af4f 8c3f f3ff 1c3e 446f 203f
000003f0: d203 253e 3c59 5e3e 86e6 0a3e b495 10be
0.22633202 0.008950497 0.66441613 0.21259119 -0.041684333 1.4321817 0.3387719 0.23270445
0.5132214 -0.43683407 0.8015965 0.4624575 -0.44118524 0.27183324 0.9573356 0.29844242
0.21765709 0.70519507 0.18994851 -0.7168066 -0.48073503 -1.296251 -0.5558957 0.4555566
-0.6224096 -0.27898374 -1.06475 -0.20325801 -1.2760075 -0.39880565 0.20911807 -0.46690133
-0.7629254 0.0841364 -1.2810572 -0.7456308 0.5448422 -0.40529674 0.44741014 -0.10625231
0.27820712 0.29274747 0.28647396 0.16755758 -0.66448516 0.07834054 0.14014105 0.36877567
0.059619177 0.26076862 -0.68271065 0.42031506 -0.10225654 -0.34525746 -0.36721265 -0.3740966
-0.18684575 -0.15492322 -0.17965217 0.12414177 -0.14722 0.16682531 0.1477479 -0.73083794
-0.93714195 -1.0261344 0.24831308 0.26479897 -1.044433 0.5934209 0.6730906 0.37764686
-0.3277918 0.018403031 0.7187699 -0.49463615 0.79990727 0.46756 -0.6744842 -0.2556144
0.35302183 -0.80884534 -0.057629835 -0.33937344 1.1472733 1.1101745 0.72667617 -0.085067555
0.17783281 -0.019539215 -1.0504837 -0.99235755 0.62802005 0.64632356 -0.055270977 0.11915496
-0.55025846 0.28003868 -0.14323442 -0.07927249 0.6659884 -0.5745922 0.85790604 -0.30347055
0.67017615 0.2483835 0.8109205 0.48627478 -1.0958319 -1.0685707 -1.4997094 -0.062281426
-0.6850924 0.17185614 -0.21020189 -0.2845073 -0.20687263 0.89721864 0.12039076 0.32772678
0.0913751 -0.80349797 -0.8112238 0.35774097 -0.1031347 -1.0663431 0.19371696 -0.9639884
0.02574467 0.039159503 -0.035897885 0.25948438 0.054048687 0.1376781 0.51888186 -0.18232952
-0.72042054 -0.38069347 -1.0424274 -0.8549571 0.04875762 0.7662672 0.30492544 -0.8062239
0.086712375 -0.26907882 0.64476794 0.73229647 0.8902374 0.5795752 1.6527786 1.9658413
2.014319 -0.5071299 -0.70166546 -0.44586006 0.89197564 0.7654662 -0.6696574 1.1338698
0.8548415 0.47365862 -0.02247233 -1.3489255 -0.73428935 -0.82730687 -2.0631096 -2.1162033
0.26680535 -0.42059472 -1.3237733 0.36363724 -1.2531978 0.109471194 -0.49295628 -0.9077397
-0.5540251 -0.07222051 -0.7343178 -1.3363365 0.3047524 -1.2621884 0.15931188 -0.39907524
-0.8306527 -0.78340214 0.7147666 0.42002752 0.4522158 0.090813175 -0.43391162 -0.7706344
-0.7013553 -0.05843464 -0.463933 0.021524793 -0.4519644 -0.17498553 0.606795 -1.43663
-0.7812399 -0.958684 -0.21686333 -0.44634414 -0.49501088 -0.18616615 0.17749034 -0.7559225
-0.32324994 0.36840665 -0.8253549 -0.6572097 -0.4289009 -1.4423465 -0.6172844 0.05511954
-0.23139174 0.2933087 0.1570675 -0.78935623 0.026474033 0.32363397 0.82704896 -1.3351105
-0.9558136 0.22313246 0.59619474 0.28923732 0.78141093 -0.24095947 -0.3717106 0.5464747
-0.02638978 -1.1594282 0.7959657 0.034867875 0.9694487 -0.39332056 -0.10880435 0.82101274
0.49686328 -1.6058745 -1.0252258 -0.62993246 -0.23210225 0.05979851 0.17477961 -0.73305273
0.019622494 1.0961818 0.15332012 0.6266978 0.16114739 0.21713728 0.135645 -0.14119607

feature_extractor.4.bn1.weight f4 [32]
00000000: aa92 cc3f b9f4 943f 082f 4040 d575 8a3f
00000010: 489c a83f c42c 7a3f 19d2 e23f 5105 7e3f
00000020: 4a8e bf3f 618e ae3f 84ef b43f f05f a83f
00000030: f4a8 2240 b549 f23f 9cb4 0240 f8a4 b43f
00000040: 0f25 973f 31e4 673f 559c bb3f 3902 3a40
00000050: b665 a03f f472 e23f 6f7f a23f 9f77 a33f
00000060: ef16 833f 6c1a 853f b9c4 973f 3947 ee3f
00000070: 43f7 c83f ba6c c73f cbf3 4f3f 407c 893f
1.5982258 1.1637183 3.0028706 1.081721 1.3172693 0.97724557 1.7720367 0.9922686
1.4965298 1.36372 1.4135594 1.3154278 2.541562 1.8928744 2.0422735 1.4112844
1.1808184 0.9058257 1.4657084 2.9063857 1.253104 1.7691331 1.269514 1.277088
1.0241374 1.0398688 1.185691 1.8615485 1.5700458 1.5580056 0.81231374 1.0741043

feature_extractor.4.bn1.bias f4 [32]
00000000: 5705 e4be e58c 40bf 140f 8dbe b6ad 04bf
00000010: ddfd d9be 59f3 31bf 6ebe 14bf 7b19 8bbe
00000020: e40e 10bd 7b4b 43bd 6af0 84bf f2bb 08bf
00000030: affb 03bf 3ab6 82bf de27 27bf b1a2 5fbf
00000040: 42bc a0be 0bd4 71bf 0d55 ebbe 6915 27bf
00000050: 7be5 41bf df5e 87be e8bf 1bbf f54c 3dbe
00000060: fb11 90bf 5ae8 d6be ccaa b4be 45f9 3cbf
00000070: 6277 9dbe 0a11 09bf 3f07 54bf b48b 7dbf
-0.44535324 -0.7521499 -0.27550566 -0.5182756 -0.42576495 -0.69511944 -0.5810307 -0.27167878
-0.03517045 -0.047679406 -1.0385869 -0.5341178 -0.51555914 -1.0211861 -0.6529521 -0.8735762
-0.3139363 -0.94464177 -0.45963326 -0.65267044 -0.75740784 -0.26439568 -0.608397 -0.18486388
-1.1255487 -0.41974145 -0.35286558 -0.73817855 -0.30755144 -0.53541625 -0.82823557 -0.99041295

feature_extractor.4.bn1.running_mean f4 [32]
00000000: 8027 5fc1 7323 a1c0 2841 21c2 660d d0c0
00000010: 6cd4 5140 8c4d 8340 42dd 8ac1 c295 19c1
00000020: 9179 94c0 dd47 58c1 46e6 2141 250f be3f
00000030: f360 3a40 e7e6 1ec1 c8f7 40c1 e683 02c2
00000040: b7b5 71c0 33a8 3141 7e19 28c1 42d0 1fc1
00000050: 5b15 2540 564a 85c0 c87b fe40 a921 ad40
00000060: 4297 0641 ad15 0fc0 d5a2 1841 92bf 0bc1
00000070: 7efc 48c1 7c0c 3241 d107 913f 562a c43f
-13.947144 -5.0355773 -40.31363 -6.5016356 3.2785902 4.103216 -17.358036 -9.599062
-4.6398396 -13.517545 10.118719 1.4848372 2.9121673 -9.931373 -12.060493 -32.628807
-3.776716 11.103564 -10.506224 -9.988344 2.5794284 -4.165324 7.95261 5.410359
8.411928 -2.235698 9.539754 -8.73427 -12.561644 11.128048 1.133051 1.532542

feature_extractor.4.bn1.running_var f4 [32]
00000000: 086a 8a43 7986 2443 2005 7544 76f6 fb42
00000010: 6a21 9a43 90a6 3743 8843 0844 cb80 4043
00000020: afae 2f43 ec20 cb43 0485 6c43 902d 6c43
00000030: 5232 1743 62f4 3743 0aae b143 278b 2a44
00000040: e4c8 7443 a0f2 2c43 5338 3a43 66b2 f743
00000050: 8906 0943 ec10 a943 ac5c 5b43 a2b5 3b43
00000060: 1c22 8043 d83b 1243 7c19 7843 327a ca43
00000070: 3d76 1d43 115c 8643 de6b c542 7807 8543
276.82837 164.52528 980.0801 125.98137 308.26105 183.65063 545.0552 192.5031
175.68236 406.2572 236.51959 236.17798 151.19656 183.95462 355.35968 682.17426
244.78473 172.94775 186.22002 495.39374 137.02553 338.1322 219.362 187.7095
256.26648 146.23376 248.09955 404.95465 157.46187 268.71927 98.71068 266.05835

feature_extractor.4.conv2.weight f4 [32, 32, 3, 3]
00000000: cf18 6ebf 2087 24bf e17a 513d ec94 dd3e
00000010: f126 c3bd 8c24 8e3e 964b c6be 0675 bbbe
00000020: 446b 33bf ff58 c03e d1e2 ec3d 5f9e 52bf
00000030: a441 5d3f f683 a13f b8d8 03be 2c45 f63f
00000040: 1fc9 fa3f 9818 683e e607 2bbf 9343 3bbf
00000050: 3f92 5cbf 403a a93e b190 7a3f ea32 0c3f
00000060: b42e 803f eaf3 a63f 8410 ad3e dddb 0d3f
00000070: 4576 8b3f 6ab1 e93e a186 00bd 1543 88be
00000080: bc66 d7bd 2623 c73d 5206 88bf c17e 0f3f
00000090: 2c66 3abf 7196 75bf cfef 033f 37be edbe
000000a0: ce4a 09be 0b48 063d 7482 433f bf5d 1abc
000000b0: 6a2a f13e daf5 90bf aa3f 9fbf 406f dfbd
000000c0: fad3 4c3f dbe7 693f 1638 0fbf 150a 9f3e
000000d0: 5f81 02be 8bb1 40bf 2340 593e 7689 1d3e
000000e0: 381b 883d 9b8b 143e e52d 09bf cd6f 11bf
000000f0: 2c50 fd3e 2e24 83be f9a6 1e3f b764 69be
00000100: 2d4b dabd 49ec 073e 4a56 be3f b210 3b3f
00000110: a48b 7ebe 5aaf 7a3f 17dd 2b3e 0dde 58bc
00000120: 098d 2c3f 16e9 15be 34b7 1ebf b0e4 233d
00000130: 4b2f c23d 75c0 6a3f 4f2d 903e ee2e 3c3f
00000140: b928 cc3f 29c1 68bf 2c41 89bf ceb5 9dbf
00000150: bc3e f03f d149 b23f edfe 3b3f 7cb8 1440
00000160: 0c72 c33f 2879 333f a92b c9be 3ea1 bdbf
00000170: 67a3 a03e 99aa 83bd bdda 8ebf 6cd7 ab3e
00000180: 97f1 083e 401e 373d 3421 17bf 3e28 1dbf
00000190: 5169 1dbe 358d d2bd 8918 0a3f ea45 11bf
000001a0: 220a f2bd 151f 7e3f 3d72 f83d b509 8dbe
000001b0: b94d a33c 7531 e83d 9b84 b7be 3e01 8b3e
000001c0: eb9b 903d d6e6 013f dc63 913f 6a8b 393f
000001d0: 7148 373e 998f bd3f 8b99 003f 2214 e1bd
000001e0: 5e1a fabc 5984 9ebf d73c 98bf 46ba 3bbd
000001f0: ffe8 823e 5741 c13e 1477 813f 9aef 153f
00000200: 39a3 7f3f c662 813e 8066 8f3e 9164 7ebf
00000210: 3a1d 963e 0d42 c3be 8231 34bf bd93 23bf
00000220: 483e 94be 4b8f 9d3e cfb6 dc3e 9294 26be
00000230: 08d8 003f bd6f 0b3f 7674 553e 7f41 183d
00000240: 333b 323f 5140 0a3f 390d 993f b8dc 843f
00000250: fe3f a33f 10ff 8e3f 3bc9 7d3f 1ef6 963f
00000260: f3cf 50be 2b43 47be b8f3 24be 6efe 713e
00000270: d64f c33f 1cb4 543f d513 e6be bb36 053f
00000280: 9592 68be 0751 913e 74f9 da3e d2d0 b5be
00000290: 3b92 063f d6b9 593f 6e0e 153f b14a e23e
000002a0: 3165 aa3e 9e24 5fbd 0356 ba3e 233d d83e
000002b0: d380 51bf 59f0 d2bd fa9a c53d f963 833e
000002c0: 2b82 453e c465 883e a3ec 94bd 64ed a9bf
000002d0: 77f3 033f 49a5 11bf b845 1cbe 62ea 09be
000002e0: bca3 523d d13c 1b3d 8fe3 b8bd f2db 1d3e
000002f0: d1db 303f c6c0 2d3f a789 083f 18ba 2cbe
00000300: 1269 2a3f 5d07 253f c9be 313f 75ae 803e
00000310: 8467 38bf 2797 673e 4116 c33d 1344 dabd
00000320: 6f74 dd3e fcb6 89bd d713 793e 45f0 60bf
00000330: f25c 543f 6240 963f 9d32 283e 94bc 2f3f
00000340: 55db dc3e 14aa a53e 0e2e b43e 8edb 8bbe
00000350: e682 dc3d 1fa9 1f3f 4d97 1d3f aba5 b93f
00000360: 9cef 3b3f 31c6 8f3f f59e 9b3f c770 44bf
00000370: 5ded 4abf cfe2 a73e 8de7 eb3f 8a88 313f
00000380: f949 0b3f 7fa5 c03f 66db 1c3f ed6a a43e
00000390: 6712 8d3f e192 49bd 852d 1ebf ec99 283f
000003a0: ffde c23f b304 293d 09c0 743f 5b7f 283f
000003b0: 86f7 bb3f 79b8 0dbf 164d 573e ae48 aa3e
000003c0: 79f7 873f 4033 043f 66d0 9e3d 820d 0dbe
000003d0: dc37 033e 40ec 3bbe 5eb1 d2bd 7549 f9be
000003e0: 7871 253f bfea 1740 da2b 833f 6217 cf3f
000003f0: 151a d33e 3ede 803f 8d52 5e3f c6ac 193f
-0.93006605 -0.64268684 0.051142577 0.4327768 -0.09528912 0.27762258 -0.38729542 -0.3661272
-0.7008555 0.375679 0.11566699 -0.82272905 0.86428285 1.2618396 -0.1287564 1.923986
1.9592627 0.22665632 -0.6680893 -0.73149985 -0.86160654 0.33052254 0.9787703 0.5476519
1.0014253 1.3043187 0.33801663 0.5541361 1.0895468 0.4564317 -0.031378392 -0.2661368
-0.10517642 0.09723501 -1.0626929 0.56052786 -0.7281215 -0.9593268 0.51537794 -0.46434185
-0.13407442 0.03278355 0.7637093 -0.009421765 0.47102672 -1.1325028 -1.2441304 -0.10909891
0.8001095 0.9136941 -0.55944955 0.3106238 -0.12744664 -0.7527091 0.21215872 0.15384468
0.066458166 0.1450638 -0.53585654 -0.5681122 0.4947523 -0.2561354 0.6197353 -0.22792326
-0.1065887 0.1327373 1.4870083 0.7307235 -0.24857956 0.97923815 0.16783558 -0.013236535
0.674027 -0.14639696 -0.61998296 0.040013015 0.09481677 0.91699916 0.28159568 0.7350911
1.5949928 -0.9091974 -1.0723014 -1.2321107 1.8769145 1.3928777 0.7343586 2.32376
1.5269179 0.70106745 -0.39291123 -1.4814832 0.31374666 -0.06429023 -1.1160504 0.3356279
0.13373409 0.044706583 -0.5903504 -0.6138953 -0.15372206 -0.10280839 0.5394369 -0.56747305
-0.11818339 0.9926618 0.12131164 -0.27546468 0.019934522 0.11337558 -0.35843357 0.27149385
0.07060989 0.5074285 1.13586 0.72478354 0.17898728 1.4809448 0.5023429 -0.10990168
-0.030530151 -1.2384139 -1.1893567 -0.04583194 0.25568387 0.37745163 1.0114465 0.5856873
0.99858433 0.2527067 0.2800789 -0.993722 0.29319173 -0.3813633 -0.7038804 -0.63897306
-0.28953767 0.30773386 0.43108222 -0.16267613 0.5032964 0.54467374 0.20845208 0.037171837
0.6962158 0.5400439 1.195716 1.0379858 1.2753904 1.1171589 0.9913518 1.1793859
-0.20391826 -0.19459216 -0.16108596 0.23632213 1.5258739 0.83087325 -0.44937006 0.5203664
-0.22712167 0.2838213 0.42768443 -0.3551088 0.5256688 0.8504919 0.5822514 0.4419761
0.33280328 -0.05447828 0.36393747 0.42234144 -0.81837195 -0.10299749 0.096487 0.2566221
0.19287936 0.2664014 -0.07271697 -1.3275571 0.5154337 -0.5689283 -0.1526097 -0.13468316
0.05142568 0.037899796 -0.09027778 0.15415934 0.69085413 0.67872274 0.5333504 -0.16867864
0.66566575 0.6446436 0.6943174 0.251331 -0.7203295 0.22616254 0.09525729 -0.106575154
0.43252894 -0.067243546 0.24323975 -0.8786662 0.82954323 1.1738398 0.16425557 0.6864712
0.43136087 0.32356322 0.35191387 -0.27315944 0.107671544 0.62367433 0.6155899 1.4503683
0.7341249 1.1232358 1.2157885 -0.76734585 -0.7926844 0.3279023 1.8430039 0.6934897
0.5440975 1.5050505 0.61272275 0.32112828 1.1021241 -0.04921234 -0.6178821 0.65859866
1.5224303 0.041264247 0.9560552 0.6581933 1.4684913 -0.5535961 0.210255 0.33258575
1.0622398 0.516407 0.077545926 -0.13774684 0.12814277 -0.18351841 -0.10287736 -0.48688856
0.64626265 2.3737028 1.0247757 1.6179011 0.41230837 1.0067823 0.8684471 0.60029256

feature_extractor.4.bn2.weight f4 [32]
00000000: bd21 253f 87d0 683f b14d ffbc a3f9 8b3f
00000010: 7e85 553f 6544 9e3f 2e4b e43e 97f4 b03f
00000020: dd46 5f3f 3448 783f 00d8 8d3e 6fe8 6c3f
00000030: 8b0f 8e3e 033f 203f 5900 c83d e3b9 0c3f
00000040: e6aa 613f 2284 6d3f 08b7 343f 7918 763d
00000050: 045b 6c3f ffe2 203f d240 853f c544 8d3f
00000060: b920 743f 6790 a53f d88e 8b3f a4da 9b3e
00000070: 1665 323f 343a 193f a1ba 623f f81b 7c3f
0.64504606 0.9094319 -0.031164976 1.0935558 0.8340682 1.2364622 0.44588608 1.3824643
0.87217504 0.96985173 0.27703857 0.92542166 0.27746233 0.6259615 0.09765691 0.5497114
0.88151395 0.92779744 0.70591784 0.060081933 0.9232638 0.6284637 1.0410407 1.1036612
0.9536243 1.2934693 1.0902967 0.30440247 0.69685495 0.59854436 0.88566023 0.98480177

feature_extractor.4.bn2.bias f4 [32]
00000000: 5bef 273a 4584 5abc eab2 a6bc 7600 19bd
00000010: 92c8 9b3b 6775 2eba 5b8a f5bc dee7 12bd
00000020: 7815 eb3c 7f15 8c3c 2cb5 973c a454 c73b
00000030: 4c95 bb3c 8aac 273c 7eb8 583d 8fe0 92bc
00000040: 2001 b43b cce9 7bbb ba1b 8fbc 7d46 953d
00000050: ca3e 1ebc bc39 453d ff0e 343c e852 d5bb
00000060: 21f5 a53d b4d3 3bbc 99cd c83b 881e 923d
00000070: 9508 a8bc 8c74 e73b dcca 3e3d 08b0 823d
0.0006406211 -0.0133372 -0.020348985 -0.037353955 0.0047541345 -0.00066550676 -0.0299732 -0.035865657
0.02869676 0.017100094 0.018519007 0.006083088 0.022898339 0.010234008 0.05291032 -0.017929344
0.005493298 -0.0038438914 -0.017469276 0.07288835 -0.009658525 0.048150763 0.0109899035 -0.0065101273
0.08103395 -0.011464048 0.006128025 0.071347296 -0.020511905 0.007063454 0.04658018 0.063812315

feature_extractor.4.bn2.running_mean f4 [32]
00000000: 66b8 e841 d131 adbd 6584 26c2 8f9f d7c1
00000010: a9a0 a641 d366 4640 79bc 87c1 d9a2 c9c1
00000020: ab43 4bc1 6173 613e 22c6 34c0 d9a7 9fc0
00000030: 22e6 bb40 75f9 d3c0 8907 76c0 ac2a e3c0
00000040: 2942 acc0 1e0c f0c0 b148 04c1 9800 87c0
00000050: eb98 52c1 752a 8c40 b39c 75c0 e82e 95c0
00000060: 35d2 03c1 12fe 54c1 0dd5 22bf fb1a dfbf
00000070: c914 f740 f38e 3841 2145 e73e ef25 7741
29.090038 -0.08456767 -41.62929 -26.95291 20.828447 3.100026 -16.967028 -25.204515
-12.7040205 0.2201667 -2.824593 -4.989239 5.8718424 -6.6242013 -3.84421 -7.098959
-5.383076 -7.501479 -8.267747 -4.2188225 -13.1623335 4.3801827 -3.8376892 -4.661976
-8.23882 -13.312029 -0.6360634 -1.7430109 7.7212873 11.5349 0.4516993 15.446761

feature_extractor.4.bn2.running_var f4 [32]
00000000: 3ec8 e743 18b7 e543 e308 1144 1f8c c743
00000010: dc4f 8543 c1d9 aa43 2477 0944 6c7a 2e43
00000020: 2266 4243 9573 4743 7baa bc42 5fc6 8743
00000030: 0ee1 1d43 d9c6 6943 89a0 4c43 58ed 3e43
00000040: 11c0 6c43 9dc7 9443 bcfb 5f43 00a8 9a43
00000050: 16c8 a843 87bc 2b43 928b af43 9d84 9743
00000060: b2b7 4b43 0e3b 6643 0051 f343 1791 1543
00000070: c143 8f43 bc5f 4343 1f6f b842 f7aa 5143
463.5644 459.43042 580.13885 399.0947 266.6239 341.7012 549.8616 174.47821
194.39896 199.45149 94.33297 271.54977 157.87912 233.77675 204.62709 190.92712
236.75026 297.55948 223.98334 309.3125 337.56317 171.73643 351.0904 303.03604
203.71756 230.23068 486.6328 149.56676 286.52933 195.37396 92.21703 209.66783

feature_extractor.5.weight f4 [32]
00000000: 1a25 c03f 22d0 773f 3b54 b33f 84d9 f43f
00000010: 398c 993f 345e 6c3f c7f2 1040 f420 d53f
00000020: 0cf1 9d3f 7dc8 be3f 86b9 a23f 8076 913f
00000030: e9c5 b53f aec4 803f e021 cf3f 2c3d c43f
00000040: 6a57 943f bf6c d93f e21c 9c3f 9a64 da3f
00000050: 6d81 d13f 33e4 a23f 8b2c be3f 0e69 c23f
00000060: 2875 d23f de10 de3f 95ab a23f f388 c43f
00000070: 928b 953f 39dc 843f f86d a33f 2c89 b63f
1.5011322 0.9680196 1.401008 1.912888 1.1995918 0.9233124 2.264818 1.6650681
1.2339187 1.4904934 1.2712867 1.1364288 1.4201022 1.0060022 1.6182213 1.5331168
1.1589177 1.6986312 1.2196314 1.7061951 1.6367623 1.2725891 1.4857343 1.518831
1.6442003 1.7348897 1.2708613 1.5354294 1.1683218 1.0379707 1.2767935 1.4260612

feature_extractor.5.bias f4 [32]
00000000: fa87 3ebf 02b7 09bf 99f3 253e 0d08 0fbe
00000010: 7130 22bf 21f5 9cbe 9c0b 373f 1629 373d
00000020: 6be8 013e 00d4 f4bd 65e1 94bf 8a91 c9be
00000030: 6523 64be 177b 31bf e5c4 8b3e 81dd 70be
00000040: 11e6 31bf 1954 87bd 7798 12bf 9137 2c3d
00000050: 9544 c4be 62f8 9ebe c984 adbe be98 023e
00000060: 7a4e 293e d3a6 203e 37d9 24bf 7299 38bf
00000070: 975b 4abf 31f0 18be ab37 92bf ac50 debe
-0.74426234 -0.5379487 0.16206206 -0.13967915 -0.63355166 -0.3065577 0.7150209 0.044716917
0.12686317 -0.11954498 -1.1631285 -0.3936885 -0.22279127 -0.69328445 0.27298656 -0.23521997
-0.6949168 -0.06607837 -0.5726389 0.04204518 -0.38333574 -0.31048876 -0.3389037 0.12753579
0.16533843 0.15688638 -0.64393944 -0.7210914 -0.79046005 -0.14935376 -1.1423239 -0.43420923

feature_extractor.5.running_mean f4 [32]
00000000: e162 c23e f234 523e f59e 893f 0344 353e
00000010: 5eea a53e e963 2e3e 6d4c cf3e 0e92 6d3e
00000020: 6b0c 073f 4093 f53e c8e7 0a3e d5c2 a13e
00000030: 8005 1d3f 6fb8 b83e 7983 0f3f 340e 6d3e
00000040: ebb2 903e f0c3 be3d fc7f 863e 5983 603f
00000050: c9a7 583e 656c 1f3f 168b 973e 1289 af3e
00000060: 05a2 4e3e 827c 4a3e f243 ae3e 56b9 c43e
00000070: d200 c63e e68e bf3e 7794 0e3e ba99 713e
0.37966064 0.2052801 1.0751635 0.17701726 0.3240537 0.170303 0.40487996 0.23200247
0.52753323 0.47963905 0.1356498 0.31593958 0.6133652 0.36078212 0.56059986 0.2314995
0.28261504 0.09314716 0.2626952 0.8770042 0.21157755 0.6227477 0.29598302 0.34284264
0.20178993 0.19774058 0.34036213 0.3842265 0.386725 0.3741371 0.13923822 0.23593798

feature_extractor.5.running_var f4 [32]
00000000: cacf e73e 64c2 f43f 6502 873f e2bd ce3f
00000010: 4ed1 983f b2fc 2340 c955 373f d019 1a40
00000020: 9d4e f03f ce2f 1a40 cf66 563e 3fc5 1140
00000030: 720a 4740 65e1 b83f 219c d43e 548b 553f
00000040: d10a 2740 483f 743f 7bba e03f d3b4 543f
00000050: 894a 9f3f ba35 b43f 26e4 1840 d3c7 1a40
00000060: 7797 7b3f a42e 0e40 d699 1b40 6eb7 fc3e
00000070: f9dd 223f 9af2 603f 4cb4 ac3f 051e bb3f
0.45275718 1.9121823 1.0547606 1.6151698 1.1938875 2.5622983 0.7161527 2.4078255
1.8773991 2.4091678 0.20937656 2.277664 3.1100125 1.4443785 0.41525367 0.8341572
2.6100352 0.9540906 1.7556909 0.83088416 1.2444621 1.4078896 2.388925 2.4184463
0.9827799 2.2215967 2.4312644 0.49358696 0.63619953 0.8787018 1.3492522 1.4618536

feature_extractor.7.conv1.weight f4 [64, 32, 3, 3]
00000000: f58d 33bf ac5a 80bf cb17 b3bd 8a98 2abf
00000010: 3e39 213f 77d2 5c3f 0385 27bf 9234 16bf
00000020: 6601 31bd e2d1 313e b276 25bf 8cdb 14be
00000030: ce8d b03f 09a4 6b3f 8320 ce3e 43b0 6d3f
00000040: 3338 a63d a745 dbbe 2ee5 00c0 25e4 47bc
00000050: e5a8 0040 36c6 44bf bd65 d4bf ffd1 193e
00000060: 5a0d cebf ea12 d3bf 11fc 80bf b836 53b9
00000070: 4d5c 5fbf 4cc5 2ebf 667b 0ebf 47f2 85bf
00000080: f850 fcbe da38 843e da85 10bf e615 45bf
00000090: e25a 3dbf 263d 883f 0469 90be c9dc 7bbe
000000a0: 0edb c8be e56e a9bf 2881 903e ffed 143f
000000b0: 1e5f da3e dafb 6cbf 8631 be3e 4008 503f
000000c0: c549 f83d 7583 0f3f 4e6c 7b3e 1768 9a3e
000000d0: afb9 343f 787a 07bf 5af1 87bf 8dc6 9c3f
000000e0: c275 ba3e dd6a 1abf 97e2 ddbd 3376 be3f
000000f0: 118f 47bf 7d29 c4be 465b 893e f789 cdbf
00000100: 2c17 a4bf fa8b 0b3f e269 dfbf 7283 5abf
00000110: 5bf9 abbd 098e 28bf 3ac4 34bf 5b80 99bf
00000120: b210 173e 4b06 41bf 0c3d cdbe 7c44 bbbf
00000130: da8f ddbf 1537 1fbf 1e6a 413f 4a49 1fbf
00000140: 181f 4fbf 213f 043f 43a9 f0be 1f5f 40bd
00000150: 52bc ebbe aa46 89bf b006 75bf da75 133f
00000160: bc60 6f3e 79ca 183f b9c0 71be 2e88 e93f
00000170: df78 0ebf a06c c33e db9f 8e3d c872 2b3e
00000180: 01b1 98bd 0164 0f3f bcec b63f ae57 11bf
00000190: 6639 4cbe 4bd8 413e 52ac 3a3f 2d10 8cbd
000001a0: 707c 663e 1f0c 89bf 98a6 8ebf 8f85 2c3d
000001b0: 3f16 533f feab 373f 75a2 133e 6205 393f
000001c0: 8e63 573e bcb6 323e c249 5e3f 8c4f 4f3e
000001d0: 56ef 283f 73a8 393f 3a54 0b3f 2fe8 e73e
000001e0: d085 dbbe 5c9f 5a3d 1ffe 0c3f 95e6 263f
000001f0: 1aa2 333f 70de 26be 132d 4fbf 7919 413e
00000200: de00 693f ad67 91bf 02fe 863e e381 1b3f
00000210: e9e5 50bd 1cf7 70bf ac6c a8bd 40c2 60bf
00000220: c768 de3e c0e2 df3e 7960 72bf 6f05 7cbf
00000230: 2796 3dbe 6c2c 79bf 855c 1dbf 3bdf 853f
00000240: 94db 543f d6a4 053f c7bc 7b3f 3eae 733e
00000250: 7198 79be bb3c 99be 0207 223f 47aa 1d3f
00000260: 331d 943f eaf1 a9bf 844b 8a3f b4ab e43f
00000270: 532b 203d d3d4 b1bc c9fa 6a3f 9667 bebe
00000280: 1aa2 02bf d680 633e a043 223f 646a 06bf
00000290: 4f70 05c0 a569 933f 0e02 49bf a0a4 f43e
000002a0: 0069 0e3f 40ec 893f 3b7d 863f f8e0 9ebe
000002b0: a35f a43e c19c 393f e16d a83e 5aaa c5be
000002c0: ebf1 38be 5048 79be 2908 103f a472 2ebf
000002d0: 0fde a7be b4ad 81bf 8d6e a5bf 6541 c7bf
000002e0: c1fd eebe 3420 39bf fc86 1abb ad1c e73e
000002f0: a5f7 043a f84b 24bf 5f49 92bd e7c2 d1be
00000300: 723f aebe c53d 24be de89 423f 9e32 b43e
00000310: b730 a53e 6499 c93e 68bd 4b3f 5ed2 0d3e
00000320: ff35 b93e e240 bc3d 806b cfbc 271d 083e
00000330: 5c54 fa3e deca 423f 56b1 9dbd 2996 be3e
00000340: 3899 113e 6d30 203f 6852 3b3f 19ec 383f
00000350: 8391 a1be 95f7 d6bd e1e8 9c3e 648e 92be
00000360: 5ba6 583f ab7f 7dbc f542 cb3e 4add a4be
00000370: 71fb 053d c882 3dbf 35bd 0a3f 5d1e 36bf
00000380: f1c1 2a3d 29de 1e3e 9ff5 2dbf c8a3 04bf
00000390: a0b4 40be 3803 89bf ffdb 8ebf 26e2 b43e
000003a0: cc11 2c3f b5d6 333f 0c13 9f3f 3a72 2d3f
000003b0: dd25 47bf c78d da3e e4f6 703f 5c34 2c3f
000003c0: 6149 883e 8fa9 84bf d71b d2be d814 5bbf
000003d0: e0b6 82bf de63 1abf 746f 743f 0fe5 8d3f
000003e0: 1ff9 af3f 3042 463d 1129 08be afd7 143e
000003f0: f287 883f 01dc 183f acfe 403e a98b a33e
-0.70138484 -1.0027671 -0.087447725 -0.66639006 0.6297797 0.86258644 -0.65437335 -0.58673966
-0.043214224 0.1736522 -0.6463424 -0.14536875 1.3793275 0.9204717 0.4025918 0.9284708
0.08116188 -0.42826578 -2.013988 -0.01220039 2.0103085 -0.76864946 -1.6593548 0.15021513
-1.6097825 -1.6490147 -1.0076925 -0.00020142912 -0.87250215 -0.682698 -0.5565704 -1.0464562
-0.49280524 0.25824624 -0.5645424 -0.7698654 -0.739668 1.0643661 -0.2820512 -0.24595942
-0.39229625 -1.3236967 0.28223538 0.58175653 0.42650694 -0.92571795 0.37147158 0.8126259
0.121234454 0.5605996 0.24553034 0.3015754 0.7059583 -0.5292125 -1.062053 1.2248093
0.36417967 -0.6031931 -0.10834234 1.4879822 -0.77952677 -0.38312903 0.2682745 -1.6057729
-1.2819571 0.5451046 -1.7454188 -0.8535682 -0.0839717 -0.6584173 -0.7061192 -1.1992296
0.14752463 -0.7540023 -0.40085638 -1.4630275 -1.7309525 -0.62193424 0.75552547 -0.62221205
-0.8090682 0.5165883 -0.47004136 -0.046965715 -0.46042114 -1.072469 -0.9571333 0.576017
0.23376745 0.5968395 -0.23608674 1.8244684 -0.55653185 0.38168812 0.06964084 0.16743004
-0.07455636 0.5601197 1.4290996 -0.56774414 -0.19943771 0.18930165 0.7291919 -0.06839023
0.22508407 -1.0706824 -1.114459 0.04211956 0.8245582 0.71746814 0.14417441 0.7227384
0.21034071 0.1745252 0.86831295 0.20245188 0.659902 0.7252266 0.54425395 0.4529433
-0.42875528 0.053374633 0.5507526 0.6519559 0.7016922 -0.1629579 -0.8092815 0.18857373
0.9101695 -1.1359764 0.26365668 0.60745066 -0.05100051 -0.9412706 -0.082238525 -0.877964
0.43439314 0.43727684 -0.94678456 -0.9844579 -0.1851431 -0.9733341 -0.614693 1.045875
0.8314755 0.52204645 0.98334926 0.23796937 -0.24374558 -0.29929146 0.63291943 0.6158795
1.1571411 -1.3276951 1.0804296 1.78649 0.039103817 -0.021707928 0.9178892 -0.37188405
-0.510286 0.22217116 0.6338444 -0.5250609 -2.0849798 1.1516615 -0.7851876 0.4778185
0.5562897 1.0775223 1.0506967 -0.31031013 0.32104215 0.7250481 0.3289633 -0.3860653
-0.18061034 -0.24343991 0.5626245 -0.6814368 -0.32786605 -1.0131135 -1.2924362 -1.5566832
-0.46677974 -0.72314763 -0.0023578992 0.45139065 0.00050723023 -0.6417842 -0.07142901 -0.4096901
-0.3403278 -0.16039188 0.7599162 0.35194868 0.3226373 0.3937484 0.79585886 0.1384978
0.36174008 0.09192063 -0.025319815 0.1329237 0.48892486 0.760908 -0.0769984 0.37223938
0.14218605 0.6257389 0.73172617 0.72235256 -0.3155633 -0.10496441 0.30646423 -0.2862426
0.8462884 -0.015472333 0.39699522 -0.3220008 0.032710496 -0.7402768 0.54194957 -0.7114008
0.041688863 0.15514435 -0.67952913 -0.5181241 -0.18818903 -1.0704107 -1.1160887 0.35328788
0.67214656 0.7024949 1.2427688 0.6775242 -0.7779215 0.42686293 0.94126725 0.67267394
0.26618484 -1.0364245 -0.41036865 -0.8557868 -1.0212059 -0.60308635 0.95482564 1.1085528
1.3747901 0.048402965 -0.13296916 0.14535402 1.0666487 0.597107 0.1884715 0.3194249

feature_extractor.7.bn1.weight f4 [64]
00000000: 72f5 523f 7b77 583f 0667 a83f 89ca 8a3f
00000010: 27e3 823f 71a5 c73f dcfd ab3f 45e5 753f
00000020: e816 7e3f 6c0c 8c3f c5f5 a93f e650 8e3f
00000030: b501 943f da1b bd3f 028d c43f d954 973f
00000040: 343f cf3f c819 aa3f bcff d33f f454 853f
00000050: 2131 c63f e1f8 a93f b4f0 983f 84a1 cb3f
00000060: 7567 9f3f ac1f 933f c29e 8a3f 9e2b 7e3f
00000070: 0194 643f 0431 873f ae58 9c3f 674c a43f
00000080: c741 993f ef55 923f b683 883f b9ac c03f
00000090: 2eec a23f 30e7 1540 f5bf d13f cbb8 873f
000000a0: 16b0 203f 042d 9e3f 04e8 883f 1144 a23f
000000b0: f249 943f 479d c43f f3d8 d03f f5b8 a83f
000000c0: c4b2 863f fa76 ac3f ac45 613f 8906 933f
000000d0: 8fb4 b13f 03ad b23f 259b b43f b9fa 1640
000000e0: d0bc 7e3f c206 8c3f 76b3 ae3f f375 a23f
000000f0: f5d3 a93f 76f6 1e40 c0c2 b03f 1bc9 833f
0.8240577 0.8455731 1.315644 1.0843059 1.0225571 1.5597364 1.3436847 0.9605296
0.992537 1.0941291 1.3278128 1.1118438 1.1563021 1.4774125 1.5355532 1.1822768
1.6191163 1.3289118 1.6562419 1.0416551 1.5483743 1.3279077 1.1948457 1.5908666
1.2453448 1.149404 1.0829699 0.99285305 0.89288336 1.0561833 1.2214563 1.2835816
1.1973199 1.1432475 1.0665195 1.5052711 1.2728326 2.3422356 1.6386706 1.0603269
0.62768686 1.2357488 1.0695806 1.2677022 1.1585066 1.5360497 1.6316208 1.3181444
1.0523305 1.3473809 0.87996936 1.1486369 1.3883227 1.3959049 1.4109846 2.359053
0.99506855 1.0939562 1.3648517 1.2692245 1.3267809 2.4837928 1.3809433 1.0295748

feature_extractor.7.bn1.bias f4 [64]
00000000: 115c e7be 87b7 a7bf eec7 33bf 12e7 acbf
00000010: 709d f4bd 4228 69bf 3685 5bbf 5bc2 96bf
00000020: 9be6 80bf 2b5e cebf bddb a2bf cd93 98bf
00000030: b13a b1bf 7d5a 3cbf 355d e8be d492 94bf
00000040: 443e 0ebf e954 48bf 0121 a7be b1eb 4ebf
00000050: cf77 0ebf ad74 87bf 2de3 2dbf c30b 283d
00000060: 91ba 88bf f84a 7dbf 06e8 96bf 362b 83bf
00000070: 3d2d 85bf 329d 74bf 51cb 80bf 5672 3f3c
00000080: f226 a5bf 55ad 90bf 8784 5dbf e3e3 36bf
00000090: c32e 77bf e46a 12bf d7b1 8ebf 0f20 9dbf
000000a0: a671 17bf c449 03bf aa9b 80bf 6f9c 5bbf
000000b0: 3f1c c3bf f28c c4be 27ad 1cbf 1bb5 7bbf
000000c0: fac4 6dbf d1c4 70bf d627 2cbf bd72 8bbf
000000d0: 0e46 e2be 571b 0cbf b18c 60bf 1e6a 02bf
000000e0: d65c a8bf c381 85bf 28c6 cabd 2d77 0dbf
000000f0: c425 cdbf 1d18 01bf 291f 3abf ce54 b1bf
-0.4518743 -1.3102883 -0.70226943 -1.3508017 -0.11944091 -0.91077054 -0.8575014 -1.1778063
-1.0070375 -1.6122488 -1.2723309 -1.1920105 -1.3846036 -0.73575574 -0.4538361 -1.1607308
-0.5556376 -0.7825456 -0.32642367 -0.80828387 -0.55651563 -1.0582482 -0.6792477 0.04102684
-1.0681936 -0.9894252 -1.1789558 -1.0247562 -1.0404431 -0.9555236 -1.0062047 0.011684975
-1.290251 -1.1302897 -0.86530346 -0.7144148 -0.9655573 -0.5719435 -1.1148022 -1.2275409
-0.5915779 -0.5128443 -1.0047505 -0.85785574 -1.5242995 -0.38388783 -0.6120171 -0.9832322
-0.9287869 -0.9405032 -0.67248285 -1.089439 -0.44194072 -0.5472922 -0.8771468 -0.5094317
-1.3153331 -1.0430225 -0.099010766 -0.5525997 -1.602715 -0.5042742 -0.72703797 -1.3854005

feature_extractor.7.bn1.running_mean f4 [64]
00000000: d09d 1fc1 5bae afc1 6cbf 19c1 5f6e fdc0
00000010: 060d 91c1 2db0 af41 65d7 b0c0 5636 aebf
00000020: 5626 733f d6ff a3c0 82d3 6ec0 70e1 47c1
00000030: 1729 9240 eb1d 50c1 5643 bfc0 1566 d740
00000040: fcce 88c1 96cb 93c1 10a4 18c2 2429 96c0
00000050: 5924 92c1 ed22 97c1 d50a f9c0 e33a c8c1
00000060: 7af5 01c1 2308 a0c0 9826 07c1 7a0d 84c1
00000070: 1032 1241 4c41 4540 d999 523f b79f 3ac1
00000080: 7bcb e2c0 dd50 28c1 6fe5 28c1 a9e0 53c0
00000090: e55d 9ec0 8c03 83c1 3b4b 7d40 42e9 0ec0
000000a0: 03e8 de3e 9b72 4dc1 1cdb aec0 0323 7240
000000b0: 3219 dc3f e2f0 b23f b6bc 67bf a9ea 7540
000000c0: ddc1 0740 2c48 a2bf bbf8 0bc1 8813 35c1
000000d0: 77ac 88bd defe 9dc0 e0b9 89c0 dd7d b3c1
000000e0: 95a7 4840 fda6 cdc0 7256 f1c1 1898 19c1
000000f0: 436e 483f 7a2d f4c1 ac06 21c1 5ff4 38c1
-9.976028 -21.960135 -9.609234 -7.919723 -18.13136 21.961023 -5.5262933 -1.3610332
0.9498037 -5.12498 -3.7316594 -12.492538 4.567516 -13.007304 -5.9769697 6.731211
-17.101067 -18.474407 -38.160217 -4.692522 -18.267748 -18.892054 -7.7825723 -25.028753
-8.122431 -5.0009933 -8.446922 -16.50658 9.137222 3.0821104 0.82266 -11.663993
-7.087339 -10.519742 -10.556014 -3.3105872 -4.9489617 -16.376732 3.9577167 -2.232987
0.43536386 -12.84048 -5.4642467 3.783387 1.7195189 1.3979762 -0.90522325 3.8424475
2.1212075 -1.2678275 -8.748225 -11.317268 -0.0667352 -4.9373617 -4.30394 -22.436457
3.1352284 -6.4266343 -30.16721 -9.599632 0.78293246 -30.522205 -10.064129 -11.559661

feature_extractor.7.bn1.running_var f4 [64]
00000000: baa1 a343 001a 8243 ff39 f442 17cb 0843
00000010: 425b 2143 71ab 8943 da07 8143 a17e dd43
00000020: 8432 5943 729a 9243 af86 5043 53c4 6743
00000030: dc29 4243 acfc 8e43 c6bf 4443 ea58 5143
00000040: 622d 2a44 fd30 2843 fca1 bb43 996e 1043
00000050: 5fe6 8043 df28 2644 bb9f 2b43 a1d0 f543
00000060: 80bd 5443 f58e 2c43 7012 4143 b35e 3f43
00000070: b745 8843 27fa 4043 d3f3 5543 abf6 b343
00000080: 55f3 fc42 4122 8643 c309 4643 7004 5c43
00000090: 650b 1b43 2cec 9243 1bbe 3a43 5e88 1443
000000a0: 9bb6 5943 4e4d 0343 4599 4c43 ca52 1a43
000000b0: 346a 2943 79cb 6543 f028 7e43 89cd 7643
000000c0: 167e 5a43 2519 1f43 96bd a643 006b fc43
000000d0: 7f20 5843 d3c0 c143 98dd 9e43 8007 1d44
000000e0: fd35 4343 4482 5843 d4e7 9043 1300 2743
000000f0: 3b56 ba43 4f99 9d43 e8e6 2943 afac 2243
327.2635 260.20312 122.11327 136.79332 161.35648 275.3394 258.06134 442.9893
217.19733 293.2066 208.52611 231.76689 194.16351 285.974 196.74911 209.34732
680.7091 168.19136 375.2655 144.43202 257.79977 664.6386 171.62395 491.6299
212.74023 172.55843 193.07202 191.36992 272.54465 192.97716 213.95244 359.9271
126.47526 268.2676 198.03813 220.01733 155.04451 293.8451 186.7426 148.53268
217.7133 131.30197 204.59871 154.3234 169.41486 229.79482 254.15991 246.80287
218.49252 159.09822 333.48114 504.83594 216.12694 387.50644 317.7312 628.1172
195.21089 216.50885 289.81116 167.00029 372.67368 315.19772 169.90198 162.67455

feature_extractor.7.conv2.weight f4 [64, 32, 3, 3]
00000000: 1e28 5cbf dd73 8bbf eb03 90be 2ae6 71bf
00000010: f606 033f c6a0 1e3f f15c 78bf ef8a 5bbf
00000020: 1543 92be e095 183e 6d32 53bf a385 56be
00000030: 2e43 943f a3a3 3f3f 6b8c 333d 0496 3f3f
00000040: a2c0 9c3e 4c6e 30be 9e3a babf 6e66 c93e
00000050: e1d8 1b40 47cc fcbe 90cb acbf 256f 9a3e
00000060: 3d11 a6bf 16de dbbf ba66 92bf 75d0 133e
00000070: 934b 50bf f256 10bf 3fed 07bf 5e8d 13bf
00000080: f312 063e 7fd9 c43e 4695 2abf 8c6c 24bf
00000090: ba67 83bf 5200 613f 821b e8be 8772 c7be
000000a0: 7206 d6be a887 78bf d2ac 0c3e 96c9 ce3e
000000b0: b557 4e3e d928 71bf a741 8d3e 4aa6 543f
000000c0: 2fb2 ec3d 37bf ef3e 571e 823e 1162 383e
000000d0: df80 713f 736a f5be 23c6 53bf bf49 bd3f
000000e0: f8f6 1a3f e019 f2be e89a 483d e5c5 cd3f
000000f0: 3c86 febe 955e a5be 42ba 1d3e 4872 9fbf
00000100: 690f a7bf 4cfd 263f bd37 cebf 896f 64bf
00000110: 5a4f dcbd 5718 22bf 2be6 a6be e3d4 54bf
00000120: 15f1 493e 8d82 1dbf b0f4 9fbe 8f12 99bf
00000130: 2f87 c6bf ce93 05bf 0720 883f a769 bbbd
00000140: 270f 59be 07ab de3e 8589 0dbf ff2c b8bd
00000150: 8f38 4cbf c5ff 9ebf 69da 85bf 3754 a63e
00000160: 96ef 5f3e ef96 543f bce7 c6be f7da cf3f
00000170: 29e1 46bf 67fb 533e b664 a0be da46 85bd
00000180: 9307 d7bd c091 d03e 6612 993f 9a3e 4cbf
00000190: 79b9 08bf 6bc5 f4bd 42ab 083f cab6 683c
000001a0: 0897 753e 808e b0bf 2b96 98bf c574 95be
000001b0: 0c21 443f 83dd 0b3f a85d 1dbe 156a ff3e
000001c0: fdb0 9e3d 5053 3dbd 8ad2 3c3f 4b31 303d
000001d0: 4ec2 c73e 1f1c 253f dc02 1b3f 2eb6 0e3f
000001e0: a702 cabe 9189 afbc 52f2 ba3e ee90 e33e
000001f0: 113f 123f 9bc9 073d 4387 4abf 88a6 5d3e
00000200: 3892 893f f74c 8bbf 0ff4 273e ec01 293f
00000210: 321f 003e 8206 5ebf 10e4 42be fe29 47bf
00000220: 14fc 0f3f 53e5 013f 069f 31bf 1f4f cabe
00000230: 7642 d23e 62dc 2bbf 02f8 01bf c638 6c3f
00000240: d181 633f a3f2 373f 015d 6e3f 3c2a 8e3e
00000250: 26a4 9ebe 4400 e0be faf9 d03e 719a 263f
00000260: 6353 973f 4ac1 e5bf 7b7e 593f 4201 c53f
00000270: b0e0 e93d 2609 82ba bfb7 183f b09c 08bf
00000280: d1cd 5dbf 5e22 64bd 007e 4f3f 7838 f8be
00000290: 4454 ffbf e99f 503f eaea 77bf a0b1 033f
000002a0: 1edc 233f ffc2 9b3f b484 a63f c4c8 ccbe
000002b0: 7b5a 7a3e b5db 223f 38ae 893e 0f3c 0ebf
000002c0: c95c c0be 50b6 18be f164 073f 929d 4fbf
000002d0: 4fc5 a9be 5e98 55bf 0f9a 91bf c98c d8bf
000002e0: a9f7 cebe 0c5a 75bf 0624 ee3d 4715 f13e
000002f0: 908a 4c3d e2b4 57bf 2707 11bf 52fe 2abf
00000300: ce1f 9cbe a5ef 41be 60cd 253f 2d3c a73e
00000310: 6e76 a73d cf7c 803e aaf0 513f 3562 04bd
00000320: d9e5 543e 91ca 363d d402 6fbd 8cb4 9f3e
00000330: 0b89 143f 9580 643f d436 07bd 6226 89bd
00000340: 7525 1bbe f401 b43e 01de 553f b356 483f
00000350: a41c 9ebe dd7b c0be bfb8 063e 2fbb 98be
00000360: 93ff 543f b931 e63d 9f16 283f b817 a4be
00000370: 0821 5bbd ffed 10bf 9def f43e ddc8 46bf
00000380: 1d07 d8bd 5aa3 e93d 0cc7 58bf 2a43 11bf
00000390: 49db 03be 7992 91bf 6613 7dbf 9195 313e
000003a0: 292d f13e 4f57 e73e fb7e 983f 11fd c83e
000003b0: cf0c 8ebf 6658 cd3e deef 2e3f a7a5 5b3e
000003c0: 9f67 5b3e 006c 99bf 8ca9 cfbe 9a3b 6cbf
000003d0: d463 75bf 552c 28bf 6fa7 593f c2da 7b3f
000003e0: 71b7 8c3f 93c3 d9bc e5b9 1abe 38d2 d639
000003f0: f5c8 5c3f fc5e c23e ec89 e8bd 3036 ad3e
-0.85998714 -1.0894734 -0.2812799 -0.9449183 0.51182497 0.6196407 -0.9701682 -0.8575887
-0.28566805 0.14900923 -0.8249882 -0.20949416 1.1583002 0.74859065 0.043835085 0.7483828
0.30615717 -0.17229575 -1.4549139 0.3933596 2.4351122 -0.493746 -1.3499622 0.30162922
-1.2974011 -1.717715 -1.14376 0.14434989 -0.8136532 -0.5638267 -0.53096384 -0.57637584
0.13093166 0.38447186 -0.66634023 -0.6422813 -1.026603 0.87891114 -0.45333487 -0.38954565
-0.41801792 -0.97081995 0.137378 0.40388173 0.20150645 -0.94202954 0.2758915 0.83066237
0.11557423 0.46825573 0.25413772 0.1800616 0.94337267 -0.47932777 -0.8272421 1.478813
0.60533094 -0.47285366 0.048975855 1.6076018 -0.49711788 -0.32298723 0.15403083 -1.2456751
-1.3051578 0.6523025 -1.611076 -0.8923269 -0.107573226 -0.6331839 -0.3259748 -0.8313734
0.19720872 -0.6152733 -0.3124137 -1.1958789 -1.5510005 -0.5217866 1.0634774 -0.09151011
-0.21197186 0.43489859 -0.55287963 -0.08992957 -0.797738 -1.2421805 -1.0457278 0.32486126
0.21868739 0.83042806 -0.38848674 1.6238698 -0.7768732 0.20701371 -0.31326836 -0.065076545
-0.104994915 0.40736198 1.195874 -0.7978302 -0.5340801 -0.11951717 0.5338632 0.014203737
0.23983395 -1.3793488 -1.1920828 -0.2919065 0.76612926 0.54634875 -0.15367758 0.49885622
0.077486016 -0.04622203 0.7375876 0.04301576 0.3901543 0.64496034 0.6055124 0.55746734
-0.3945515 -0.021427901 0.36513 0.4444651 0.5712748 0.03315125 -0.79112643 0.21645558
1.0747747 -1.0882863 0.16401695 0.6601856 0.125119 -0.8672868 -0.19032311 -0.7779845
0.56244016 0.50740546 -0.69383276 -0.3951349 0.4106633 -0.6713315 -0.50769055 0.9227413
0.8886996 0.7185461 0.9311066 0.27766597 -0.3098461 -0.43750203 0.40815717 0.6507941
1.1822323 -1.7949612 0.8495862 1.5391009 0.11419809 -0.0009920939 0.59655374 -0.53364086
-0.86642176 -0.055696838 0.81051636 -0.48480582 -1.9947591 0.81494004 -0.96842825 0.5144291
0.6400775 1.2168883 1.3009248 -0.39996922 0.24448578 0.63616496 0.2689073 -0.5556039
-0.3757079 -0.14913297 0.528884 -0.8109981 -0.33158347 -0.8343562 -1.137514 -1.6917964
-0.40423325 -0.95840526 0.11627965 0.47086546 0.04993683 -0.8426038 -0.5665154 -0.6679431
-0.30493015 -0.18939073 0.647665 0.32663098 0.081768855 0.2509522 0.8200785 -0.03232022
0.20790805 0.044626776 -0.058352306 0.31192434 0.5802161 0.892587 -0.033011273 -0.06696774
-0.15151007 0.3515774 0.83541876 0.7825729 -0.30881226 -0.375945 0.13156413 -0.2983031
0.83202475 0.112399526 0.6565952 -0.32049346 -0.053498298 -0.56613153 0.4783906 -0.77650243
-0.10548232 0.1140811 -0.8467872 -0.5674311 -0.1287662 -1.1372825 -0.98857725 0.17342211
0.47104767 0.451838 1.1913751 0.39255574 -1.1097659 0.40106505 0.6833476 0.2144991
0.21426247 -1.1986084 -0.40559042 -0.92278445 -0.9585545 -0.65692645 0.8502111 0.9838067
1.0993482 -0.026582515 -0.15109976 0.00040973886 0.86244136 0.37963092 -0.113544315 0.33830404

feature_extractor.7.bn2.weight f4 [64]
00000000: 9647 a23f 44ee ce3e 2861 293f 3d92 953e
00000010: a0d6 a93f 84af 06bc 9d50 ff3e 1ff0 0b3f
00000020: e80c 3e3f 5fb3 ca3d 415b d93e 9b30 133f
00000030: 7546 813e a86a 313f 2da9 233f 3b89 883e
00000040: ae92 283f 11fc 303f 5c3c 363f 6ea4 363f
00000050: 4ec0 253f 5599 9bbc 6735 653f 3b66 683f
00000060: e9c1 1a3f b3e9 3e3f 6f55 403f cb96 5c3f
00000070: 8d0e 383f 4a7c 553f c4a6 143f ebf5 a03f
00000080: 9244 e03e ff37 c13e 02b4 173f 6047 273f
00000090: 4b8c e93e 0d6b b73e 31ab e13e 76b4 423f
000000a0: e98e bb3f 5454 423f b593 423f 7778 363f
000000b0: c9f5 eb3e a338 3e3f 4c07 1c3f 4a8f 1f3f
000000c0: a7e9 3a3f e098 1b3f 7619 be3f 6f9d b43d
000000d0: 0cf4 903f a7b5 503f aaed 143f 7f68 f33d
000000e0: de52 0b3f 43f1 663e 2baf 7a3f deab 403f
000000f0: dafc 073e 79f5 203e 80d6 5b3f 1723 1d3f
1.2678096 0.40416157 0.66163874 0.29213133 1.3268623 -0.008220557 0.4986619 0.5466327
0.74238443 0.098974936 0.42452434 0.5749604 0.25249067 0.6930337 0.63930017 0.266672
0.65848815 0.6913462 0.7118585 0.7134465 0.6474656 -0.018994013 0.8953461 0.9078099
0.60452133 0.74575347 0.7513036 0.8616759 0.718972 0.83392775 0.58066964 1.2575048
0.43802315 0.37738034 0.59259045 0.65343285 0.45614848 0.3582386 0.4407592 0.7605661
1.4652988 0.75909925 0.76006633 0.71277565 0.46085957 0.7430517 0.60948634 0.62328017
0.73012775 0.60780144 1.485152 0.088190906 1.1324477 0.8152718 0.58175147 0.118851654
0.5442332 0.22552972 0.97923535 0.7526225 0.13280049 0.1571864 0.85874176 0.6138167
